RE-Install_Optimize/Program/ProgramFiles/mpv.net-DW/vapoursynth64/plugins/models/RealESRGANv2/animejanaiV2L1.onnx (onnx, 184764 bytes, 29 tensors)

body.0.weight f4 [24, 3, 3, 3]
000000 fa 91 cc 3b e0 03 bb 3d 69 e3 36 be c5 ab 3d be
       0.0062429877 0.091315985 -0.17860188 -0.18522556
000010 13 9f d6 bd e0 af 55 3d 42 13 ff 3c c4 8f 76 3e
       -0.1047956 0.05216968 0.031137113 0.2407828
000020 21 da 47 3d b8 09 5e 3d 30 d7 8d bd 17 05 b6 bc
       0.04879201 0.054208487 -0.069258094 -0.022219224
000030 2d f2 6c be db a9 1f be 54 36 ea bc 91 f6 61 3d
       -0.23139258 -0.15592138 -0.028590359 0.055166785
000040 e2 23 21 3e fd 2f 5b 3e c0 b8 55 be cb b9 2f be
       0.15736344 0.21405025 -0.20871258 -0.17160718
000050 e7 c3 cb 3c 8e 98 e8 3d 7d b3 9f bd c0 7b 3a 3e
       0.024873687 0.113572225 -0.077979065 0.1821127
000060 1c ab 51 bd 6d c1 11 3d 97 eb 59 3e 2c 6b e5 bd
       -0.051188573 0.035584856 0.21281277 -0.11202082
000070 5a 07 30 bd 28 73 6e 3d cd 63 1f bd b4 d5 55 3e
       -0.04297576 0.05821529 -0.038913537 0.20882303
000080 50 27 72 bd a0 3a c3 bc e5 5f b9 bd f3 56 aa bd
       -0.059119523 -0.023831666 -0.090514936 -0.083173655
000090 22 52 b4 bd 2f b9 34 3e 4c cb f8 3d e5 89 b5 3d
       -0.08804728 0.17648767 0.12148151 0.08864192
0000a0 41 19 07 bd 76 b9 fa bd f8 64 98 3d 8f e2 49 be
       -0.03298307 -0.12242405 0.07441133 -0.19715331
0000b0 0a 75 d6 bd 64 7c fb bd d5 eb 85 3d 4e 2e 60 3d
       -0.10471542 -0.12279585 0.06539122 0.05473166
0000c0 e6 92 c7 bd 4b 35 10 bd 7e 54 91 3d c0 66 29 3e
       -0.097448155 -0.035207074 0.07096194 0.16543102
0000d0 44 e2 51 3d ad 78 b9 bb 26 ea 3b 3e 78 8f bb bd
       0.051241174 -0.0056601376 0.1835104 -0.09158224
0000e0 40 26 90 3d 16 4d f1 bd a7 36 26 be 4c d7 d1 bd
       0.070385456 -0.11782281 -0.16231786 -0.10246143
0000f0 61 ab 32 3e df 52 cf 3d 0b b5 a8 bd 80 91 5c 3d
       0.17448188 0.10123228 -0.08237656 0.053849697
000100 00 aa e4 3d de c1 3c bd de 87 3d bc 78 cc f5 3b
       0.111652374 -0.046083324 -0.011568038 0.007501181
000110 66 7f 9e 3d 7d 41 3d 3e f5 37 39 be 49 90 dd bd
       0.07739143 0.18482013 -0.18087752 -0.10818536
000120 63 83 88 3d e8 94 19 3e 9e d1 fc 3d be 04 3e 3e
       0.06665685 0.1499821 0.12344669 0.18556497
000130 b0 7c 72 ba 40 6f 67 be 9b 0f 9b 3b 79 24 38 be
       -0.0009250147 -0.22601032 0.004732085 -0.17982663
000140 3c 84 71 be 8f 76 50 3e 2b ad 91 3e 26 95 0d be
       -0.235856 0.20357727 0.2845243 -0.13826427
000150 30 38 81 3c fe 89 ba bd 55 d7 5c bd 54 6b 1e be
       0.015773863 -0.09108351 -0.053916294 -0.1547063
000160 4b 15 1c 3d 92 13 e8 bd 92 06 0f 3e 32 44 4f 3e
       0.038106244 -0.11331858 0.1396735 0.20240858
000170 1f c3 54 3e 4a 1e 27 3d 13 f0 c6 be c7 65 51 be
       0.20777558 0.04080037 -0.38855037 -0.20448981
000180 2f b4 ee 3d 68 a5 82 3c f7 a6 e5 bd 99 11 d4 bd
       0.11655461 0.015948012 -0.11213487 -0.10354919
000190 8e 78 84 3e bc b7 5a 3e bc ac 67 bd c1 e7 e5 bd
       0.25873226 0.21359152 -0.056561217 -0.11225844
0001a0 19 7b 0a be b0 85 99 3d b4 80 e5 bd 4c 01 6a bd
       -0.1352352 0.07496202 -0.11206189 -0.057130143
0001b0 7a 9c 56 ba cc 44 74 3d 34 d9 05 bd 70 31 42 3e
       -0.0008186769 0.059635922 -0.032677844 0.18964171
0001c0 d6 ec b4 be 00 c8 6c 3e da 8d 36 3e 55 90 76 be
       -0.3533694 0.23123169 0.1782755 -0.24078496
0001d0 40 c4 1d bd 88 c0 a5 3d 20 72 16 bb dc ae 33 3e
       -0.038517237 0.08093363 -0.0022956207 0.17547172
0001e0 1a c0 24 3e 73 74 82 be db 87 4b bd 80 03 46 3e
       0.16088906 -0.2547947 -0.04969011 0.19337273
0001f0 c5 c1 b6 be f6 3f ae 3c ac ab 5f bd c6 88 b0 bc
       -0.3569471 0.021270733 -0.05460708 -0.021549594
000200 ec af 4f bd 44 07 ef bd 8d d6 93 bc 02 06 ef 3d
       -0.05070488 -0.11671308 -0.018046642 0.11671068
000210 24 fa cf bd e7 63 ce 3d ec ec 34 3e c2 8c 6b bd
       -0.101551324 0.100776486 0.17668504 -0.057507284
000220 d3 b4 30 bd af 07 87 bd 7e ee f6 3c a0 ee 82 3d
       -0.043141197 -0.065932624 0.030143019 0.0639317
000230 d0 36 04 3e d1 4d fd 3d 19 3a 0b 3e 76 da 9d bd
       0.12911534 0.12368358 0.13596381 -0.07707684
000240 08 6b e6 bd 9b ea a9 bd b3 25 25 3e 70 b0 a9 3d
       -0.11250883 -0.082967006 0.16127662 0.08285606
000250 19 c7 d8 bd 38 46 14 be 3a 65 bd bd 79 e3 14 be
       -0.1058485 -0.14479911 -0.09247823 -0.14539899
000260 4b b8 c5 3b 86 5f 24 3e 8c 35 0b 3e 28 de 1a be
       0.0060339323 0.16052064 0.13594645 -0.15123808
000270 cf d8 4f 3e f2 d9 e3 bd 33 d0 e0 bc 23 cf 28 bd
       0.2029755 -0.11125554 -0.027443027 -0.041213166
000280 90 c3 a6 bb 68 80 a3 bc cb 8c 28 be 13 f1 2a be
       -0.005089231 -0.01995869 -0.16459958 -0.16693525
000290 92 d3 5c ba 51 f4 48 bc 61 09 9d bd cd a5 d1 3d
       -0.00084238604 -0.012265281 -0.076678045 0.10236702
0002a0 a7 0e 3c be df 6a cc bb 0c 77 51 3e 5f ba 8f bd
       -0.18364964 -0.006238326 0.20455569 -0.07017969
0002b0 cc c6 5f 3e f7 c3 cd 3d 26 6d 40 be 90 f3 3d 3e
       0.21853179 0.10047143 -0.18791637 0.18549943
0002c0 79 2d 29 39 4a 6c eb bd 9d 08 37 3e 6f d4 22 be
       0.00016134036 -0.11495264 0.1787438 -0.1590135
0002d0 6a 4d 93 3c 4d 69 3c bd ed 8d 22 3e 35 11 cd 3c
       0.01798125 -0.04599886 0.15874453 0.025032619
0002e0 ad 0f ce 3d 50 54 b1 3d ff 15 94 bd 20 26 5a bd
       0.10061584 0.086586595 -0.07230758 -0.053259015
0002f0 30 71 18 be e9 5d d1 3d fc bf 4f 3e 21 2d 3a 3e
       -0.14886928 0.1022299 0.2028808 0.18181278
000300 bd 34 27 be 3e 28 2f 3a 43 76 f4 bd 6c ee 1d be
       -0.16328712 0.0006681717 -0.11936619 -0.15422982
000310 2f 9e 13 be 26 52 8d 3d 5b 2f d7 bd 1b ff 23 3d
       -0.14415811 0.06900434 -0.10507079 0.04003821
000320 a2 f8 6b 3d c6 0d 01 3e 21 e9 04 be 93 9d be bd
       0.05761016 0.1260291 -0.12979557 -0.09307399
000330 56 9b ed bd 54 6e 25 3e bf dd 27 bd d4 2a 3a 3e
       -0.116018936 0.16155368 -0.040982958 0.181804
000340 f7 25 b7 3d 0e 22 0d 3d 46 92 1f bd 50 6d 65 bd
       0.08942788 0.034456305 -0.038957857 -0.05601245
000350 90 13 19 3d c5 1d a6 bd b9 aa cb bc ed 85 c1 3c
       0.037372172 -0.08111147 -0.02486168 0.023623431
000360 85 00 1f be cb df fc bd c3 bb 4b 3e df 5e 21 be
       -0.15527542 -0.123473726 0.19895844 -0.15758847
000370 fc ba d6 bc 46 11 80 3e b2 da b2 3d f1 aa 15 3d
       -0.026212208 0.2501318 0.08733119 0.036539976
000380 d8 e4 e5 bd 93 e6 a7 3c 7c e4 66 be 3a 82 7b bd
       -0.11225289 0.020495689 -0.22548097 -0.06140349
000390 3a f5 eb bd 0f 5a b4 bd 9d e2 8e 3c ef 10 31 3e
       -0.11521383 -0.0880624 0.017442042 0.17291616
0003a0 7b e4 58 3d 6b d1 4f 3e 7d b2 e7 3d 3c be 2c be
       0.05295227 0.2029473 0.11313341 -0.16869444
0003b0 ef 77 8c 3d f6 e9 10 be 30 06 f3 bd 4f fc 31 3d
       0.06858813 -0.14151749 -0.118664145 0.04345351
0003c0 3c a8 c0 3d 2b 8e 2b 3e 40 c6 85 bd 42 a0 d2 3c
       0.09407088 0.16753452 -0.06531954 0.025711183
0003d0 72 53 30 3e d3 8c ec bd a1 61 5d 3e 2e 69 9e be
       0.17219332 -0.115502976 0.21619274 -0.3093962
0003e0 e4 eb 06 3c bd d6 0f 3d f8 aa d5 bd f0 be a3 3d
       0.008234952 0.0351169 -0.10433 0.07995403
0003f0 d1 77 58 3e 94 5c 8e bd 75 5e c7 ba 35 06 97 bd
       0.21139456 -0.069512516 -0.0015210646 -0.07374231

body.0.bias f4 [24]
000000 3b b3 5c bc 96 49 6e bd 06 84 fc 3c 15 e4 57 bb
       -0.013470466 -0.058175646 0.030824672 -0.0032942344
000010 36 c2 29 bb 28 f3 1c be 3a fd e9 bd ff aa b2 bc
       -0.0025903112 -0.15327132 -0.11425252 -0.021810053
000020 56 24 87 3c ee 1b 7d 3c ee ac 00 3c d4 13 96 bb
       0.016496819 0.0154485535 0.00785373 -0.0045800004
000030 50 38 2f 3b e4 78 5c bd 41 b2 90 3b b0 de 4a 3b
       0.0026736446 -0.053826228 0.004415781 0.0030955486
000040 bc 51 0f 3b c0 68 fa 3d 58 98 8a bc 64 9b 74 3c
       0.0021868786 0.12227011 -0.016918346 0.014929626
000050 50 f0 36 3c c4 81 95 3d fc a9 ba bd 2d 81 80 3c
       0.011165693 0.073001415 -0.09114453 0.015686596

body.2.weight f4 [24, 24, 3, 3]
000000 c9 3f bb bb f6 d7 74 bc 73 9d db 3d 0e 5c 88 bd
       -0.005714391 -0.014944067 0.107233904 -0.06658183
000010 17 c8 a3 3d 3e a3 16 be 70 ac 63 bd f1 48 c1 bc
       0.079971485 -0.1471071 -0.05558437 -0.023594351
000020 ee 5c b0 bc 7c ba 79 bd 7d 17 50 bd ec 86 8b bd
       -0.021528687 -0.06096886 -0.05080365 -0.06812844
000030 83 f5 31 3c 8c 79 b9 bd 3f fc 54 bd 1b 15 dc ba
       0.010861757 -0.09056386 -0.051998373 -0.0016790958
000040 97 1b a0 bd 31 b7 27 bb 7f ff a7 3d f7 7d d1 3d
       -0.07817762 -0.0025591368 0.08203029 0.10229104
000050 f2 73 aa 3d 97 3e 04 3e 0c 01 7f bd 49 cb 9c be
       0.08322896 0.12914501 -0.062256858 -0.30623844
000060 e7 8e 27 3e 5b ee ce 3c 27 ac 04 3d cd 4f 13 3d
       0.16363107 0.025260141 0.03239074 0.035964776
000070 89 57 86 3d 02 c9 88 3c 07 72 bf 3c 40 82 82 3e
       0.06559665 0.01669741 0.023369802 0.25489998
000080 bc 62 ac bd 5b bb 95 bd 87 30 06 bd 76 d9 50 3e
       -0.084172696 -0.07311126 -0.032761123 0.20395455
000090 b5 7c db bd 3c 87 39 be 89 c8 a4 bd 0c 83 b8 bb
       -0.10717145 -0.18117994 -0.080460615 -0.0056308564
0000a0 ab 23 d4 bd c3 81 ae be 7c 7c 4f 3e af 1c 4f be
       -0.103583656 -0.34083375 0.20262331 -0.20225786
0000b0 94 90 ab 3d 79 da 5e 3b ff f1 ba 3c fc 5a 41 3d
       0.083771855 0.0034004732 0.02282047 0.04720591
0000c0 96 bb b4 3d ad d5 60 bc ca ce 9b bd 7f 1a d7 bc
       0.08824842 -0.013722819 -0.07607801 -0.026257752
0000d0 78 42 b1 bd c2 23 e7 3b 32 ce d6 3d 44 20 1c 3d
       -0.08655256 0.007053823 0.104885474 0.03811671
0000e0 b9 34 61 3d c3 17 51 bd 44 b7 ca bc 47 ca b4 3d
       0.05498192 -0.05104805 -0.024745591 0.08827644
0000f0 c2 54 49 bd d8 6c d1 3d 03 5d 0a 3b 88 ef 2c 3d
       -0.049153097 0.102258384 0.0021112568 0.042220622
000100 6c 62 75 be ff a4 aa bc 7c 53 43 be b5 a7 d0 bd
       -0.23963326 -0.02083063 -0.19074816 -0.101882376
000110 46 89 c1 bd 6d 29 5d 3e 4d ee 1d 3e d0 36 c6 bd
       -0.09450011 0.21597834 0.15422936 -0.096784234
000120 6c a1 03 3d 6c 32 2e be b5 fb ac 3d f7 37 8e 3c
       0.032136366 -0.17011422 0.08446447 0.01736067
000130 ed 59 0a 3e 14 92 c4 3c a4 e4 bf 3a 21 6c 75 3e
       0.13510866 0.023995437 0.0014640284 0.23967029
000140 16 c2 fa bd db 03 be 3d a4 3e 12 be 63 be 97 3c
       -0.1224405 0.09278079 -0.14281708 0.0185234
000150 85 29 8a bd 93 c3 2a 3e 05 94 6f be f3 ee 0a bd
       -0.067462005 0.16676168 -0.23396309 -0.033919286
000160 06 18 a4 bd 17 f7 3f bb c2 77 6b bd 3e 6b 9e 3d
       -0.080123946 -0.0029291564 -0.057487257 0.077352986
000170 bd aa 9a bc 06 e8 94 bd a2 ad 46 bd 0b 28 5f bd
       -0.018880242 -0.072708175 -0.048505433 -0.054481547
000180 ba 5b d5 bd 1b a0 1a be 2f 18 cb 3b 0d 1f 22 be
       -0.10417886 -0.15100138 0.0061979513 -0.15832157
000190 6b 74 3b 3e 4c ea 21 3e de 6e a8 bb ec 2d 96 3c
       0.18306129 0.15812033 -0.0051401695 0.018332444
0001a0 82 a4 dc bd 12 1f b0 3d 5c a3 7b 3e d3 d0 95 bd
       -0.10773565 0.08599676 0.24574035 -0.07315221
0001b0 2c cf 66 3c 6e 64 2f 3d 98 04 9f bd f0 f0 8e bd
       0.01408748 0.042820387 -0.07764548 -0.06979549
0001c0 c8 cc a8 be 85 4a 30 be 2b 7f c1 bd 2c 5a e0 bd
       -0.32968736 -0.17215927 -0.094480835 -0.10954699
0001d0 b1 73 73 3c a7 40 48 bc 35 20 88 bd 72 d4 79 bd
       0.014859126 -0.012222446 -0.06646768 -0.06099362
0001e0 97 5f 59 3d 7e 4e 8d 3b a1 ad 92 3c 69 de 5c bd
       0.053069677 0.0043123355 0.017905058 -0.053923044
0001f0 6e 7e c7 bb a6 16 9d bd 3f 4e 90 3d 09 f1 a7 bc
       -0.0060880696 -0.076703355 0.07046174 -0.020500677
000200 41 26 a0 3d 32 e4 c7 3d c2 8a e4 3c 12 9e ce bd
       0.07819796 0.09760322 0.027898196 -0.10088743
000210 45 39 93 3d 0b 89 08 3e 95 c3 6e 3d 5b b9 d2 bd
       0.07188658 0.13333528 0.05829199 -0.1028926
000220 ab 3b cc bd 55 de a9 3c c8 b7 28 3d 6b d7 70 bd
       -0.09972318 0.020735899 0.041190892 -0.05879919
000230 0a 19 0b 3e 2d 3a ef ba ec 0b a5 bd 63 c6 0d 3d
       0.1358377 -0.0018251591 -0.080589145 0.034613024
000240 44 0d b1 bd 14 27 f4 bc 6b 3a 3b 3c 55 7a 09 be
       -0.08645108 -0.02980379 0.011427502 -0.13425572
000250 f6 67 9a bd 3d 37 95 bd cd 87 7c bd 4d 75 2f bd
       -0.0753936 -0.072859265 -0.061652947 -0.042836476
000260 98 2f 91 3d 23 e9 98 bd 49 27 1f 3d 41 d4 9c bd
       0.07089156 -0.07466342 0.038855825 -0.07657672
000270 bb a5 53 3d a6 40 49 bc a5 08 ab 3d 31 66 64 bd
       0.051671725 -0.01228348 0.08351258 -0.05576152
000280 a7 eb 5b 3d 75 0e b3 bd 4d 04 57 bb a6 94 43 3d
       0.053691532 -0.08742992 -0.003280896 0.047749184
000290 bd a5 0e 3d ee 62 b4 bd 43 7a 9c bd f0 06 2a bd
       0.03482603 -0.08807932 -0.07640507 -0.041510522
0002a0 31 60 59 bc 0a da 93 3d 93 01 18 3d a0 f0 c6 bd
       -0.013267563 0.07219322 0.037110876 -0.09713864
0002b0 c9 2b b0 3d c0 a4 d2 3c 3d dd 25 3e 30 60 a9 3e
       0.08602101 0.025713325 0.16197677 0.33081198
0002c0 87 10 50 3e dd d8 83 bc f4 eb 49 3e 5e 4a 73 3d
       0.20318805 -0.01609462 0.19718915 0.059397094
0002d0 fc 6d 39 bd 79 91 3c be 17 22 48 bd 74 5b 98 bd
       -0.045270905 -0.18414868 -0.048860636 -0.07439318
0002e0 1d 8a c2 3c fa b0 14 be dd 56 ba ba 6f 05 a7 bd
       0.023747498 -0.14520636 -0.0014216561 -0.08155333
0002f0 d4 27 3d bd 99 7f 14 bd 1b f1 23 3e b1 55 a8 3d
       -0.04618056 -0.0362545 0.16009943 0.08219469
000300 ba ee 92 3d 13 04 55 be b2 a0 8e 3b c4 41 d0 bd
       0.0717444 -0.20802335 0.0043526525 -0.10168794
000310 36 5f d1 3c 48 bf 57 3d 5b 25 56 3d cb 7b 17 be
       0.025558095 0.052672654 0.05228172 -0.14793317
000320 01 6d 19 be f0 0d 03 bd bd 50 bb 3d 04 b0 a3 bc
       -0.14982988 -0.031995714 0.09146259 -0.019981392
000330 4b ee 83 bd b0 ce f8 3d cc 9a 92 3d 1b f9 f1 bd
       -0.06441935 0.121487975 0.071584314 -0.11815091
000340 0e 9f 0e 3a ef d8 9f be 86 ac 6c 3d b4 88 65 3e
       0.0005440571 -0.31220195 0.05778172 0.2241543
000350 e0 10 b0 3c 0d 76 8f 3d de 0f 6e 3e 45 8b 36 3e
       0.021492422 0.07004938 0.2324824 0.17826565
000360 93 2b 6d bd 93 4c a8 bc c8 c7 65 be e3 40 b2 3d
       -0.057902884 -0.020544326 -0.22439492 0.087037824
000370 0a b0 6f 3e 96 d3 a7 3d 5b 8d f9 bd 35 7b 10 3e
       0.23406997 0.08194654 -0.121851645 0.141095
000380 b8 f0 69 bd 95 7f d2 3c ee 85 f3 3d 74 3b 56 3c
       -0.057114333 0.025695601 0.118907794 0.013075698
000390 1e f8 ff 3c 21 60 81 3d e2 24 74 3c 57 43 e3 3b
       0.031246241 0.06317163 0.014901372 0.006935518
0003a0 81 81 44 3d 6f 52 ca 3c 27 3b a2 3d c8 4d ef 3d
       0.047975067 0.02469751 0.07921439 0.116847575
0003b0 e7 bb 63 bd bd 4d 41 be be aa 30 3d 7c 76 8c bb
       -0.05559912 -0.18877311 0.043131582 -0.0042865854
0003c0 e5 b7 5f 3e fa 99 d0 bd d3 c5 85 3b 9a 7b 30 3d
       0.21847494 -0.10185619 0.0040824204 0.043086626
0003d0 14 00 81 bc 6a b4 97 bd 2a de 80 3e 1b b5 30 3e
       -0.015747108 -0.07407458 0.25169498 0.17256586
0003e0 9f cd 2d bb 7a b7 c6 3d 11 7e bd bd 54 46 d3 bd
       -0.0026520265 0.09702964 -0.09252561 -0.103161484
0003f0 3b f2 7f bd 1c bf f9 3d 69 e3 72 bd 83 9d 93 3e
       -0.06248687 0.12194654 -0.059298906 0.2883111

body.2.bias f4 [24]
000000 23 f7 bb bc 34 b0 b1 3c 71 83 36 3d 36 9c 2a 3d
       -0.022944992 0.021690466 0.044558946 0.04165288
000010 80 4d e0 3c 2f 9f 1a 3d 0f 71 4f bd 08 fa e7 3c
       0.027380705 0.037749466 -0.05064493 0.028317466
000020 07 77 4e 3d 9f b0 e8 3b 99 3b 72 bc ed 65 1e bc
       0.050406482 0.007101133 -0.014784717 -0.009667856
000030 98 98 22 bd 49 a0 c0 3c 44 0a 26 3d d6 44 ca bc
       -0.039696306 0.02351393 0.040537134 -0.024691027
000040 be b6 6c 3c 28 9f b8 3c 28 a2 b5 bc 73 30 3d 3b
       0.014447866 0.02253683 -0.022172049 0.002886799
000050 db 24 8a bc 04 16 a7 bc 8c 2c e1 bc ea ce 10 3d
       -0.016863277 -0.02039624 -0.027487062 0.03535358

body.4.weight f4 [24, 24, 3, 3]
000000 64 a6 4b 3c 4a d9 37 bd bc d5 e2 bd 16 12 d0 3d
       0.012429807 -0.044884957 -0.11075923 0.101596996
000010 ed 15 ea 3b 0d 9a e7 bd fe d1 27 3e d3 68 ff 3d
       0.007143727 -0.1130868 0.163887 0.124711655
000020 2a 24 ad bd 0f b0 03 3c 05 20 92 3c 7b 35 39 bd
       -0.08454163 0.008037581 0.017837534 -0.04521702
000030 bf 7c 19 3d 88 31 7b bd ee d4 2f be 25 64 91 bd
       0.037472483 -0.061326534 -0.1717107 -0.07099179
000040 28 3f ea 3c b8 45 16 be 91 52 28 bc 6f c6 14 3c
       0.028594568 -0.14675033 -0.010273592 0.009080513
000050 08 5f 61 bd 62 16 81 3c d7 9e 7e 3c 4f df d8 bd
       -0.05502227 0.015757743 0.0155408 -0.10589468
000060 98 7c 71 bd 5f 28 fa bb f5 13 77 bd d3 a0 f2 39
       -0.058956712 -0.007634207 -0.060321767 0.0004627766
000070 e4 8c 65 3d da 99 35 bd a0 f9 a3 bd 13 a3 60 be
       0.056042567 -0.044336177 -0.080065966 -0.21937208
000080 bf e1 08 3d cf c8 7e bd c8 c4 b0 3c e9 23 4a bd
       0.033418413 -0.062203225 0.021578208 -0.049350653
000090 45 92 20 bd 5c 77 8f bc c7 5d c1 3c 1f 2c d4 3d
       -0.039201993 -0.01751297 0.023604287 0.10359978
0000a0 88 82 ad 3d dd 8e ed bd d7 87 b9 3d 38 ce 0a bd
       0.084721625 -0.11599515 0.090591125 -0.03388807
0000b0 85 0a 18 be 80 28 83 3d 7f 64 1d 3d 24 d2 cd 39
       -0.14847763 0.06404209 0.03842592 0.00039257214
0000c0 f8 b7 0b bd 79 d8 78 bd a5 3d e8 bc 8f 66 9d 3c
       -0.034110993 -0.06075332 -0.028349707 0.019213943
0000d0 de 7a 2d bc ed 5b 6b 3d 7d 61 ae 3d 99 08 66 3c
       -0.010588376 0.057460714 0.08514688 0.014040136
0000e0 85 18 b8 bd 52 62 ce 3d bb 06 eb 3d 77 3b db 3d
       -0.08989052 0.10077347 0.11475893 0.107047014
0000f0 17 74 5d 3e d1 97 85 3e f1 c3 90 3e 88 d3 6b 3c
       0.21626316 0.2609239 0.2827449 0.014393695
000100 66 19 9b bb 41 e9 9b bd 03 14 2e bb 37 10 98 bd
       -0.0047332523 -0.07612849 -0.002656222 -0.07424968
000110 c0 a8 63 3d 4d 6f 59 bc 9b 1c fc 3d a3 43 1f be
       0.055580854 -0.013271165 0.123101436 -0.15553145
000120 8e a0 10 3d 0b 30 c3 bc 60 5c 97 bd c5 7a 05 3d
       0.035309367 -0.02382662 -0.07390666 0.032587785
000130 e4 df 72 3d 00 04 dd bd f7 6b 15 3e 50 9f f9 3c
       0.05929555 -0.107917786 0.14591967 0.030471474
000140 ea bf d6 3b fc f4 ad 3d a8 fe 84 bc 19 70 59 3d
       0.0065536397 0.08493993 -0.01623471 0.05308542
000150 e8 aa fd 3c d3 5b 5f be 0f af 5b 3d ad c7 3f bc
       0.030965284 -0.21812372 0.053633746 -0.011705321
000160 0c cd b2 ba de f0 76 3d b7 47 b8 3d cb fb f9 bd
       -0.0013641431 0.060288303 0.089980535 -0.12206229
000170 7f c7 b1 ba 4c 57 26 3e 9f 80 2b 3b 33 a8 e1 bd
       -0.0013563483 0.16244239 0.0026169193 -0.110184096
000180 fe 11 3f 3d 30 2b 35 3c 54 db 7f bc 30 84 a8 bd
       0.046648018 0.01105766 -0.015616257 -0.08228338
000190 7f 63 b7 bd af d1 87 3d 16 ac 08 3d 6f 4a cd 3d
       -0.08954524 0.06631791 0.03336724 0.10023963
0001a0 b9 da 5b 3d d8 90 c9 3d 0d 81 48 bd 81 73 29 bd
       0.053675387 0.0984208 -0.048951197 -0.04136992
0001b0 b2 dd d7 3d d3 a2 14 3d 6c 23 33 bd 15 90 b9 3a
       0.10540332 0.036288094 -0.043734953 0.001415732
0001c0 44 96 03 bc 75 02 c4 3d ae 18 ff 3d ac 51 86 3c
       -0.008031432 0.09570781 0.12455879 0.016396366
0001d0 57 c2 05 bd 9f 0d d4 bd e5 a3 fa bc 78 ab 9c 3a
       -0.03265604 -0.103541605 -0.03059573 0.0011952957
0001e0 2d 15 e6 3d b2 4b 07 3c 06 b0 3b bd 8a 09 86 bc
       0.11234508 0.008257793 -0.045822166 -0.01636197
0001f0 fe 6c cf bd 73 a7 e7 bd eb 2c 9d bc 60 83 34 bd
       -0.101282105 -0.11311235 -0.019186458 -0.0440706
000200 81 27 ef bd ed fc e5 bc 71 3d 70 bc 5c 2c 33 3d
       -0.11677457 -0.028074706 -0.014663086 0.043743476
000210 e6 80 2b bd a7 0d b6 3d 9f 83 1a bd 65 4f ae bd
       -0.041870974 0.08889323 -0.03772318 -0.08511237
000220 11 b9 c0 bd bc 96 c6 bd 8c f8 9c 3c bd bd a4 3d
       -0.094102986 -0.09696719 0.019161485 0.08044002
000230 70 f7 ce bd e5 64 d2 bc 84 a6 e9 bd c3 76 7b bd
       -0.10105789 -0.025682876 -0.114087135 -0.061392557
000240 0f c1 a3 3c 9b d1 83 3d 83 60 af bd 6a 8b 3e bd
       0.019989518 0.064364634 -0.0856333 -0.046519674
000250 36 ab e6 bc 43 87 ad bd 02 4e 03 bb 8c 14 fe bd
       -0.028157812 -0.08473065 -0.002003551 -0.12406263
000260 5b 02 be bb d6 91 9a bc 28 ff 0f 3d 91 c8 43 3d
       -0.0057986206 -0.018868368 0.035155445 0.047798697
000270 d7 43 12 3d 34 fc 9d 3d 95 98 74 3d 0b 3e 4f 3d
       0.03570923 0.077141196 0.059715826 0.05059628
000280 2c b9 d1 3c d0 a9 92 bd 3c b6 f6 3c f4 90 a4 bd
       0.025600992 -0.071612954 0.030116193 -0.0803546
000290 58 29 21 bd ad aa b3 3d 89 59 fe 3c 16 a0 95 3d
       -0.03934607 0.08772788 0.031048553 0.073059246
0002a0 6e 0c b5 3d 6b 75 b2 3c 0e b6 8c bd d2 de 0e bc
       0.088402614 0.021784505 -0.06870662 -0.008720117
0002b0 ed 2b 58 3d 3c c1 4e bd 3e 11 0b bd 27 12 49 bc
       0.052776266 -0.05047725 -0.03395199 -0.012272394
0002c0 e6 76 52 bc b7 27 00 3d 80 3d 7e 3d 11 05 ce 3d
       -0.01284573 0.031287875 0.06207037 0.1005956
0002d0 64 15 ab bd 33 0a a8 bd c4 79 d0 3d 6a d2 1b 3d
       -0.08353689 -0.0820507 0.10179475 0.038042463
0002e0 e5 fe 75 3d 0a 0a bf bd de 67 36 3c b4 e8 74 3d
       0.06005754 -0.09328087 0.011133162 0.059792235
0002f0 cb e0 20 bd 91 cd 87 37 72 d0 a9 3d 8b dc 2a 3d
       -0.03927688 1.6188978e-05 0.08291711 0.041714232
000300 77 74 95 3c de 8a 5e bd 3e d8 21 3b b1 4f 58 3a
       0.018244011 -0.054331653 0.002469554 0.0008251621
000310 63 15 39 bd eb b5 47 3d 80 92 b1 bd fc eb de 3c
       -0.04518641 0.048757475 -0.08670521 0.027212135
000320 30 11 1e 3d f1 f0 f3 3d 1f 4d 6e 3d 79 97 81 bd
       0.03859061 0.1191119 0.058179017 -0.06327719
000330 89 e4 c7 3d d1 7d 77 bd cb 48 d9 bc 0f ba 85 bd
       0.097603865 -0.060422722 -0.026523968 -0.065296285
000340 3e bf 85 3b ae 6e 42 bc 9d 71 a7 bd 25 50 62 3d
       0.0040816357 -0.011867208 -0.08175967 0.055252213
000350 1f 0a 21 3c ea 25 f9 3c ff 20 40 3c d9 d9 90 ba
       0.009829073 0.030413587 0.011726617 -0.0011051252
000360 06 61 a1 3c 3f 9c b3 bb 49 f0 c2 bd 23 d2 4e 3b
       0.019699585 -0.0054812725 -0.09518487 0.0031558357
000370 25 9e ac bd 30 45 bd 3d f9 16 3b bd a3 d5 90 3d
       -0.08428601 0.09241712 -0.045676205 0.07071998
000380 15 5d 05 3d 8f b5 d8 bd 15 e2 b9 3d 1e 76 a5 3b
       0.032559473 -0.105815046 0.09076325 0.005049481
000390 be 9b 99 bd 2a 5e dc 3c 13 07 de 3d 7f dd 12 bd
       -0.075004086 0.02690037 0.10841193 -0.035855766
0003a0 82 2c d6 ba 5a df 0c bd 54 f5 8d 3c 27 e7 3a 3d
       -0.0016340169 -0.034392692 0.017328896 0.0456306
0003b0 a6 9b 16 be 18 24 0d 3e 8b 6b 5d bd 98 73 1c be
       -0.14707813 0.137833 -0.05405764 -0.1527847
0003c0 17 ec 24 3d 7e fa 10 be 32 e6 9c bd 5b 35 16 be
       0.040264215 -0.14158055 -0.07661094 -0.14668791
0003d0 58 ad 66 be b2 65 5e 3c 05 0a ef bd 97 1e 5a be
       -0.22527063 0.013574051 -0.11671833 -0.21300732
0003e0 5f e9 e8 3d 7e 12 fb bc 01 ee f3 bc f8 23 bd 3d
       0.11372637 -0.030648466 -0.029776575 0.09235376
0003f0 85 25 b7 3b 0f cf 17 bd e6 8a b7 bd 2a 0c 0b 3d
       0.0055891895 -0.0370627 -0.0896204 0.033947147

body.4.bias f4 [24]
000000 a8 65 71 3c 5f f8 34 3d 1f 7c 22 3c 26 f8 e2 3c
       0.014733709 0.044182178 0.009917288 0.027706217
000010 74 7a 0a 3d a6 55 84 3c 1e 2a 51 3d 2b ef 50 3c
       0.033808187 0.016154122 0.051065557 0.012752335
000020 8a f4 c1 3b c9 78 58 3d 97 2e 0d 3d 2c 26 72 3c
       0.005919044 0.052849565 0.03446826 0.014779609
000030 06 d9 44 3d ca 25 e9 3c 0c bf 8f 3b b5 16 28 bc
       0.048058532 0.028460402 0.0043867882 -0.01025932
000040 ec 45 cb bc 9e 4c 56 3b 3a 6c b4 3c 0f 97 16 be
       -0.024813615 0.0032699476 0.022024263 -0.14706062
000050 8e be 95 3c 3b 33 07 bd e7 64 3b 3d 9d 1f 13 3d
       0.01827934 -0.03300784 0.045750525 0.03591882

body.6.weight f4 [24, 24, 3, 3]
000000 a3 21 b8 3d f3 92 8a bc 7b ac 43 bc 3c 02 04 3e
       0.08990791 -0.016915774 -0.011942978 0.12891477
000010 94 cd 53 3c 8e 80 29 bc 00 f3 95 3d 22 6b dc bc
       0.012927432 -0.010345591 0.07321739 -0.026906554
000020 ac c6 ff bd 3e 1c f7 bd de 9a 6a 3d c7 6f 0a bd
       -0.124890655 -0.12065934 0.0572766 -0.033798005
000030 90 23 18 3e 3e 35 7a 3d 24 d3 b6 bd d9 03 c3 3d
       0.14857316 0.061085932 -0.08926991 0.09522218
000040 87 5b 8d 3d cc b9 bd bd ff da a1 3c 96 cd 24 be
       0.06902223 -0.092639536 0.019757746 -0.1609405
000050 5b 9e 9b bd 7c 4d 84 3d 59 21 40 3b de 97 60 3d
       -0.07598563 0.064600915 0.0029316752 0.05483233
000060 f9 58 73 3d 2a 3a 9c 3d 36 f6 87 3d fe bd 07 be
       0.059411023 0.076282814 0.06638758 -0.1325607
000070 f4 35 33 be 36 bc 4c bd 43 8e d1 bd a7 36 e8 3d
       -0.1750105 -0.04998418 -0.102322124 0.11338549
000080 a2 95 b2 3d ba f7 1e be be 4a 3c 3d 80 b7 f0 bc
       0.087199464 -0.15524188 0.045969717 -0.029384375
000090 27 cd 12 3e 7f 4d 19 3d 2c c1 bc 3d 28 85 a0 3c
       0.14336072 0.03742742 0.09216532 0.019594744
0000a0 ba ec 26 be 10 c8 2f be 2c 6c b9 38 af 11 7d 3d
       -0.16301242 -0.17166162 8.841636e-05 0.061784443
0000b0 ea fb 84 3d c6 03 46 3b ac dd 36 3c 7e f5 0d bd
       0.06493361 0.0030214651 0.011161249 -0.034657948
0000c0 17 87 87 bd 64 5f 8d bd 32 d8 f4 3a 2c 8f 0a 3c
       -0.06617563 -0.0690296 0.0018680154 0.008456986
0000d0 d1 13 38 bd 5c a7 d4 bc 98 01 be 3d 20 0c 3a 3d
       -0.044940773 -0.02595871 0.09277648 0.04542172
0000e0 17 33 2a 3d 56 0d 5e 3d 9d db 25 3c 9d 04 4f be
       0.04155263 0.054211937 0.010123161 -0.20216604
0000f0 ff a5 09 3d 03 32 3c be eb a5 d3 bd 1f af 9c bc
       0.03360557 -0.18378453 -0.10334381 -0.019126473
000100 10 d2 07 bd 0a bf 2b be 11 23 d0 3d a3 21 c3 3c
       -0.033159316 -0.16772094 0.101629384 0.02381975
000110 70 de ed bd ca e2 06 3d cb 77 73 3d 16 2f 0b 3e
       -0.11614692 0.032931127 0.059440415 0.1359218
000120 7c ef 16 3c 4e 85 01 3d e6 df b9 bc 26 5e b0 bd
       0.009212371 0.03162127 -0.02268977 -0.086117074
000130 2c 40 09 bd f8 dd ec bc f8 cc 8f bd 4c ac ac 3d
       -0.033508465 -0.028914437 -0.070215166 0.084313005
000140 1d e1 5f bd b9 f1 02 3d 42 0a 8f bd e6 c3 bd bd
       -0.054658044 0.031968806 -0.069843784 -0.0926588
000150 c8 40 21 3d 69 ff 67 3b 5a ef 16 be a8 19 f4 3d
       0.03936842 0.003540004 -0.14739743 0.11918956
000160 5d e7 36 bd 0f d6 87 be 3d 88 19 3e c5 e1 de bd
       -0.04465424 -0.265305 0.14993377 -0.10882906
000170 f4 d7 d2 bc 0d 94 76 3e 5f c7 3f be bf fe 64 be
       -0.02573774 0.24079914 -0.18728398 -0.22362803
000180 29 56 ab 3d c5 1c 98 bd 9c 28 aa 3c 98 be 2d 3e
       0.08366043 -0.07427362 0.020771317 0.16967237
000190 c9 c1 44 bd 81 6b 24 be 83 38 49 3e 7a 43 dd 3c
       -0.04803637 -0.16056634 0.19650464 0.027009714
0001a0 0f 49 c7 bd c6 64 5c 3e b8 a6 ba bd a0 cb 8f 3d
       -0.09730732 0.21522817 -0.0911383 0.0702126
0001b0 09 59 a5 bc cb 52 dc 3b 75 52 05 bd c1 f4 b1 3c
       -0.020184057 0.006723737 -0.03254934 0.021723153
0001c0 24 46 c3 3c f5 02 51 3d 04 3b 9d 3c b5 f5 59 bd
       0.023837157 0.05102821 0.01919318 -0.05321284
0001d0 40 37 8e 3d 71 28 19 3c a1 9f 1f 3d 5b 97 bc 3d
       0.06944132 0.009348021 0.038970593 0.09208556
0001e0 d2 b0 9a bb 25 0b 85 bc db f5 ac 3d 63 ec fe bc
       -0.0047207857 -0.016240666 0.08445331 -0.031118577
0001f0 17 25 73 bd 05 b1 97 3c 9a 1f 91 3c 2a 86 a4 3d
       -0.059361544 0.018517027 0.017715264 0.08033402
000200 8c da d5 3c 0a da 92 3d 67 8c 7e bb 9f c2 12 3d
       0.026105188 0.07170494 -0.003884101 0.035830136
000210 0b 14 f9 bc 9f 38 23 bc 75 4d 7b bd ac d1 e9 bb
       -0.030405065 -0.00996223 -0.061353166 -0.0071355905
000220 d5 8c 69 3d 9f 5c 0a 3c 55 eb a5 3c f8 7d e8 3c
       0.057019074 0.008444934 0.020253817 0.02838038
000230 96 b4 9d 3d 75 15 d3 bd 1e ea 20 3d 0a 32 98 bd
       0.0770046 -0.10306827 0.03928577 -0.07431419
000240 45 3a 4f 3d 8b f6 79 bd 3d d4 01 3e ed 9c 89 bc
       0.05059268 -0.061026137 0.12678619 -0.01679846
000250 43 44 d7 3d d4 99 88 3d ae db 7d 3c ef 5b 69 bd
       0.10511067 0.066699654 0.01549427 -0.05697244
000260 ec cf c8 bd ea 65 d3 bc 8f 8b b0 3c 7e bd 18 3d
       -0.09805283 -0.025805432 0.021550922 0.03729009
000270 5d 82 06 be 0a 2b 9d bc 3f 5c 76 bd 31 48 05 bd
       -0.13135667 -0.019185562 -0.060146566 -0.03253955
000280 8a d3 c1 3b 35 e5 2a 3c 50 7c 00 bd 86 ef cb bc
       0.00591511 0.010430624 -0.031368554 -0.024894487
000290 b3 6f 26 bd 39 4d c9 bb 39 62 bc bc 3a 45 9a bd
       -0.04063387 -0.006143239 -0.022996055 -0.07532735
0002a0 e4 df 9e 3d 43 c3 80 3c ce 03 8a 3c ca cf 0d 3e
       0.077575475 0.015718108 0.016847517 0.13848796
0002b0 cf fd 3a be bf 86 ff bd c1 c0 d3 3d f0 d2 4c 3d
       -0.18260883 -0.12476873 0.10339499 0.050005853
0002c0 9a 0b ca bd 1e e6 57 3c f1 7c c7 bd 29 fc 5d bb
       -0.09865494 0.013177423 -0.097406276 -0.0033872223
0002d0 2e ac 4a 3e 11 c3 1a bb 80 3d ac 3d e0 83 73 3d
       0.19792244 -0.0023614804 0.08410168 0.059451938
0002e0 1c 46 02 be b1 54 f7 bd 12 2a 4a 3e 10 c2 0c bd
       -0.12722057 -0.120767005 0.19742611 -0.03436476
0002f0 5f 72 57 bb 5a af 09 3c c7 e6 2d bd e7 2d ad 3c
       -0.0032874567 0.0084036235 -0.042456415 0.021140052
000300 46 b1 4d bb 6f ef 04 3d cc bc 0d bd bd 53 c4 bc
       -0.003138618 0.032454904 -0.03460388 -0.02396571
000310 1b 40 19 bd 8d 52 b9 3c ec 36 20 3d c0 fb c7 3d
       -0.03741465 0.022622371 0.039114878 0.097648144
000320 36 85 dc 3b 90 44 5d 3d f6 8e 5d be 61 c7 ef be
       0.006729747 0.054020464 -0.21636567 -0.46831802
000330 8a 81 31 be 6f b4 ba be 6f 90 b1 be 00 11 5c 3c
       -0.17334571 -0.36465785 -0.34680507 0.0134317875
000340 02 c7 ed 3b 4c 4a 8e bd 46 ee 5a 3d 01 24 27 3d
       0.0072563896 -0.06947765 0.05344989 0.04080582
000350 81 bf be bd da b6 b4 3d 14 1d bb 3d fd 68 68 bd
       -0.0931387 0.08823939 0.091364056 -0.05674075
000360 bb 8b 0f bd 07 1d a1 3c af 3f 20 3d ac 2a 8e bd
       -0.035045367 0.019667162 0.039123233 -0.06941733
000370 5b e1 f5 bd 56 73 17 3d 32 0a 91 3c 85 77 80 3d
       -0.12005874 0.036975227 0.017705057 0.062727965
000380 9c 91 0c bc 8f 13 1b be 1d 1d 1a bd 74 54 70 bc
       -0.008579638 -0.1514418 -0.03762542 -0.014668573
000390 13 c6 53 bd 3a aa 91 bd 7e c0 63 3c e0 51 3d bd
       -0.05170257 -0.07112546 0.013900874 -0.04622066
0003a0 d1 3f d1 3d 03 51 fc 3d b9 37 d5 bd db e7 9f 3d
       0.1021725 0.12320139 -0.10411019 0.07807895
0003b0 56 24 8b bd 2a fc a7 3c 91 f4 10 be 43 50 2c 3d
       -0.0679404 0.020505983 -0.14155795 0.04206873
0003c0 cc 00 8e bc 6f 3f dc bd 5e f4 65 3d 3b 21 57 bd
       -0.017334364 -0.107542865 0.05614125 -0.052521925
0003d0 3d 50 ec bd eb b3 0d 3d 8b 46 4c be 72 81 77 be
       -0.11538742 0.03459541 -0.19948785 -0.24170473
0003e0 8b 75 86 3c 83 1a 0d 3c 44 5b c8 bd 9f 55 0b 3d
       0.01641347 0.008612278 -0.097830325 0.0340172
0003f0 97 f2 c4 bd fa 84 14 bc 3a f6 9e 3d 4d bd 94 bd
       -0.09616583 -0.009064907 0.07761808 -0.07262669

body.6.bias f4 [24]
000000 6b d1 e8 3c 23 df a6 3c 90 75 a4 bc 68 7d fc 3c
       0.02842017 0.020370072 -0.02007559 0.030821517
000010 a0 6f 04 bd d5 5d d9 bb d9 70 3b bc 1e 6b ce bc
       -0.032333016 -0.0066335 -0.011440479 -0.025197562
000020 7d b9 3a 3c 18 1a 9e 3c ff db 8c bd c7 63 e7 bb
       0.011396763 0.019299552 -0.068778984 -0.007061455
000030 10 b4 cc 3b 5c 89 8d 3c 6c 00 c3 3c 01 e6 cb bb
       0.006247051 0.017277412 0.023803912 -0.006222487
000040 8b 13 63 3d 4c 4d 88 bc 11 98 c6 bc 31 85 7c 3d
       0.05543856 -0.01663842 -0.024242433 0.06165046
000050 fd 33 2c 3d 11 78 20 3d f4 b6 33 3d af 42 3a 3c
       0.042041767 0.039177004 0.04387565 0.011368438

body.8.weight f4 [24, 24, 3, 3]
000000 8e 30 44 3e 61 f0 f0 3c ca e0 80 3d d3 92 55 bd
       0.19159147 0.029411497 0.06292875 -0.052141976
000010 22 b7 65 bd 97 36 21 3c 8a 58 1a 3e 87 de 24 3c
       -0.056082852 0.009839675 0.15072837 0.01006282
000020 27 fa 5e bd 86 b9 3d bd 98 56 25 bd ea 09 9d ba
       -0.054437783 -0.046319507 -0.040365785 -0.0011981104
000030 40 82 26 bd fb f8 58 bd 6d f5 22 3d 06 d7 19 bd
       -0.04065156 -0.05297182 0.039784838 -0.037558578
000040 e4 cd 82 3d 47 23 f1 3d 16 51 da bd 75 ae 67 3c
       0.06386927 0.11774307 -0.10659997 0.014140715
000050 8a f2 c1 3d 54 7e 47 3d 94 0f eb 3b 2c d6 dc bc
       0.09470089 0.04870446 0.007173488 -0.026957594
000060 bc a3 74 bd b4 c2 08 bb 89 31 59 bd 0c f8 9e bd
       -0.05972646 -0.0020868005 -0.053025756 -0.07762155
000070 c5 84 da 3d c1 e1 59 3d 5e 6b 73 bc 78 85 b2 3d
       0.10669855 0.05319381 -0.014857141 0.087168634
000080 8a 5e a2 bd 69 2b 7c 3d fa cd 30 bd e2 e2 b4 3b
       -0.07928188 0.061564837 -0.043165185 0.0055202106
000090 e1 d0 fa bc af ad 14 bd 72 0e ce 3d 1c 41 08 bc
       -0.03061718 -0.03629845 0.10061349 -0.008316305
0000a0 0c 6b 8a bc 81 31 35 bd 5f 76 fb bc 51 72 bf bd
       -0.016896747 -0.044236664 -0.030696092 -0.09347976
0000b0 f2 5d 96 bd 85 c4 e3 3b 2d d7 21 bd 61 f3 47 bd
       -0.073421374 0.006950917 -0.03951185 -0.04881609
0000c0 7d e6 a0 bc 51 08 ac 3b 79 58 a3 bd 67 38 db 3c
       -0.019641155 0.005250015 -0.07975859 0.026760293
0000d0 a8 54 78 bd 81 8a 17 bc fd e7 40 3d 82 26 0a bb
       -0.06062761 -0.0092493305 0.04709624 -0.0021080081
0000e0 46 e7 bf 3c eb dd 71 bc 3c b1 b3 3c e7 3f 44 3d
       0.02342571 -0.014762382 0.021935098 0.047912505
0000f0 63 7e 18 bd a1 88 31 bc 26 78 db 3c 4e 0c aa bc
       -0.037229907 -0.0108357975 0.02679069 -0.02075782
000100 29 de 45 bc 1d 98 40 bd 4b d9 64 3c 97 84 ec 3d
       -0.012076893 -0.047020067 0.013967822 0.11548727
000110 65 3e 10 bd b6 38 2f 3d 90 81 84 bd 67 53 21 be
       -0.035215754 0.042778693 -0.064700246 -0.15754472
000120 f1 5e f9 bc 17 fe fd 3a 3e bc 18 bd f7 e1 10 be
       -0.03044078 0.0019378093 -0.037288897 -0.14148699
000130 93 b7 68 be 2d 7d 80 be b1 e4 f9 bd bf 48 3e be
       -0.22726278 -0.25095502 -0.122018225 -0.18582438
000140 e6 2d 0b be 8b 90 da 3b 39 d5 8b 3d 71 ab b5 bd
       -0.13591728 0.006670063 0.06827778 -0.088705905
000150 3a a9 b0 bd b1 5b 47 bd 41 dd aa 3c 6d d4 b0 bd
       -0.086260274 -0.048671428 0.020857455 -0.08634267
000160 81 17 21 3e 30 48 8d 3d 0c 0c 46 3d 8b 5f ad bd
       0.15731622 0.06898534 0.048351333 -0.08465489
000170 e6 27 9a bd ba 0a 86 bc 25 45 40 be 43 b6 d3 bd
       -0.07527141 -0.016362537 -0.18776377 -0.10337498
000180 2d 37 c5 bd 04 d8 a5 bd 49 de 82 3c e8 77 af bc
       -0.096296646 -0.08097842 0.015975134 -0.02141948
000190 18 02 5d bd 13 0f 91 bb 2b 2a f7 bd 8f 76 41 3d
       -0.053957075 -0.004426846 -0.1206859 0.047232207
0001a0 cf 9a ba bd 6e ea 45 3d ce d3 70 3c 5f 10 d1 bc
       -0.09111559 0.048319273 0.014698936 -0.025520502
0001b0 56 40 cb 3d ae 43 44 bd ea a7 10 bd 85 42 cc bc
       0.099243805 -0.047916107 -0.035316385 -0.024934063
0001c0 af 02 29 be 04 66 83 be 1b a9 48 3d 68 d6 4b 3d
       -0.1650493 -0.2566377 0.048989397 0.04976502
0001d0 6a 5f 45 3d e7 d0 20 bd d6 76 70 bd be 6b 82 3c
       0.048186697 -0.039261725 -0.05870708 0.015920516
0001e0 30 fe c9 3a d1 a6 ab 3d e8 46 8f bc 50 b4 ae 3b
       0.0015410837 0.08381427 -0.017489865 0.0053315535
0001f0 63 49 af 3b 5c 3f 8c bd ea 53 d0 bd c4 21 9e bb
       0.0053493246 -0.06848022 -0.10172255 -0.0048258025
000200 d1 b8 81 3c e0 30 6e 3d e6 31 57 bd 95 80 08 3e
       0.015835198 0.05815208 -0.05253782 0.133303
000210 60 06 95 bd 32 d1 21 be cb 37 84 bd a7 76 e5 3d
       -0.072766066 -0.15802458 -0.06455954 0.11204272
000220 59 c5 85 bd b1 a9 a7 bc cf 43 6c bd 96 d8 f3 bc
       -0.06531782 -0.020466657 -0.057681855 -0.029766362
000230 85 4b 14 3e b7 55 33 bd cc 78 28 3c 47 02 99 bc
       0.14481933 -0.043782916 0.0102827065 -0.018677844
000240 0c 7a 85 3d 80 30 71 39 ab a7 83 3d bb f6 11 3d
       0.06517419 0.00023001619 0.064284645 0.03563569
000250 69 6c 19 3b 9b a0 9b 3b c7 62 d2 bb 5a 32 17 be
       0.0023410565 0.0047493703 -0.0064204666 -0.14765301
000260 18 f9 6f 3d bd 53 1f bd 0d f2 2a bd 6f da 03 be
       0.058587164 -0.03889822 -0.041734744 -0.12876295
000270 d0 f2 1c bd d9 fd 29 bc 1e 2b c4 bd 63 0f 98 3c
       -0.0383175 -0.010375463 -0.095785365 0.018562024
000280 1d 11 3b 3d e6 b8 62 3d 12 41 83 bd 49 25 4f 3d
       0.045670617 0.055352114 -0.064088956 0.050572667
000290 4c b7 b3 3c dc b0 a6 bc ad a9 bd 3d d7 12 97 bd
       0.021937989 -0.020348005 0.09260879 -0.0737664
0002a0 5d 77 21 bd 5c 58 86 bb 1a 72 f6 bd 0e 15 cf 3c
       -0.039420474 -0.0040998887 -0.12033482 0.025278594
0002b0 43 7a d8 bd ee 7e 1b be d3 84 2a 3c 6a 3e 48 3c
       -0.105701946 -0.15185139 0.010407644 0.012221912
0002c0 2a 8a f1 bd 9b 9f 2d 3d 6e e9 4e bc 41 76 85 bd
       -0.11793931 0.04238854 -0.012628896 -0.06516696
0002d0 b9 68 82 bd 8b af 03 bc 81 81 2b 3c ec 46 25 be
       -0.063676305 -0.008037458 0.010467888 -0.16140336
0002e0 45 ac 1e 3e b3 51 f4 3d f2 d1 f0 bd a6 53 91 3b
       0.15495403 0.119296454 -0.11758794 0.0044350205
0002f0 6b cd 3c bb 33 c5 97 3c 0c 0d a1 bd 28 7f 8a 3c
       -0.0028808962 0.01852665 -0.078638166 0.016906336
000300 ff 53 79 3d 89 d7 2f be 3f d0 17 be 75 9e bf 3c
       0.06087112 -0.17172064 -0.14825533 0.023390988
000310 e7 1b 61 3d 84 89 59 bd bf 85 f1 bd 28 67 f3 bd
       0.05495825 -0.05310966 -0.11793088 -0.1188491
000320 e1 33 b3 3a 22 8e 92 bd 59 3a 36 3d 21 86 16 3a
       0.0013672077 -0.07156016 0.04448924 0.00057420327
000330 dc 19 eb bd fd 2d 84 bc 35 6e 94 bd be 75 fb 3d
       -0.11479542 -0.01613521 -0.07247583 0.12278317
000340 f7 83 68 3d ba f8 bf 3d ba 68 68 bd 90 3e 69 3d
       0.056766476 0.09373613 -0.0567405 0.05694443
000350 41 07 c8 ba b5 53 ee 3d d0 84 b1 3d a5 54 82 3d
       -0.0015260951 0.116370596 0.0866791 0.06363801
000360 81 00 37 3c f3 fb 39 bd 35 7a 4d 3e fe 54 15 bd
       0.011169554 -0.045406293 0.2006615 -0.036458008
000370 56 34 4e bd 54 40 16 bd 44 30 bd 3a 0b c5 b8 bd
       -0.05034288 -0.03668244 0.001443394 -0.09021958
000380 78 ce 41 bd df 6b 06 be 44 93 9b bd c8 40 d5 bc
       -0.047316045 -0.13127087 -0.07596448 -0.026031867
000390 ea dc 87 bc 4f fa 41 bd d6 d1 96 3d f5 02 01 be
       -0.016584832 -0.047357854 0.07364242 -0.12598784
0003a0 ea 9f b5 3d 78 de 00 3d 78 45 3b bd ec a8 41 3d
       0.08868392 0.031462163 -0.045720547 0.047280237
0003b0 d9 22 12 bc 0d e5 17 bc 17 8e 45 bc ed 38 4f 3b
       -0.008919441 -0.009270919 -0.012057803 0.0031619624
0003c0 bb b9 42 3d b4 c9 45 3d e3 27 ed 3b 02 7f b2 bd
       0.047540408 0.048288062 0.007237421 -0.08715631
0003d0 a3 93 95 bd 1e 75 f0 bd 59 b9 28 3d ba db e9 bd
       -0.0730355 -0.11741088 0.041192386 -0.11418863
0003e0 c5 24 00 bd 9c b7 0f bd 50 0d 84 3d 7e 03 9f bc
       -0.031285066 -0.035087213 0.06447852 -0.019410845
0003f0 53 d3 bc bd e5 fe 37 39 a5 6b 1b bd 80 8e 13 3c
       -0.092199944 0.00017547196 -0.037944455 0.009006143

body.8.bias f4 [24]
000000 b7 7a 1c 3d 5d 42 c5 3c 7b ed e5 3c 81 06 1a 3b
       0.038202967 0.024079496 0.028067341 0.0023502412
000010 64 af 78 bc 12 85 94 3c 61 dc 3c bc 85 89 69 3b
       -0.015178535 0.01812986 -0.011527152 0.0035634947
000020 b6 16 01 3d f6 73 19 bc fa 07 49 3d 8b a5 9b bc
       0.0315158 -0.009366026 0.049079873 -0.018999835
000030 69 ff 93 3c c9 1c 50 3c 03 ee 34 3c 1b c6 d1 ba
       0.018066125 0.012702175 0.011043075 -0.0016004475
000040 8b c0 85 bc bb 32 a9 3c 8c a8 35 3c 55 8c e6 3c
       -0.016327163 0.020654073 0.011087548 0.028143087
000050 9c 71 2d bc 54 40 90 bd 53 a7 eb 3c b8 ae bb bc
       -0.010586169 -0.070435196 0.02876631 -0.02291046

body.10.weight f4 [24, 24, 3, 3]
000000 df b7 b6 bd c3 28 8c 3c a5 42 bb 3c ff cd 89 ba
       -0.089217894 0.01710928 0.022858927 -0.0010513662
000010 cb a7 1f 3e c9 99 4c bd 89 3c 9c 3d 29 42 57 bb
       0.15591352 -0.04995135 0.07628734 -0.003284583
000020 a0 52 3a bd 74 21 ce 3d 4c 22 15 3b e4 5b b5 bb
       -0.045488954 0.100649744 0.0022756038 -0.005534636
000030 7b 68 b4 3d 2a de 49 be 69 9f 1d 3c ef 7b a7 3d
       0.088089906 -0.19713655 0.009620526 0.08177935
000040 73 9f 2e be 98 93 23 bd 0a a4 92 bc 9d 75 31 bd
       -0.17053013 -0.03993568 -0.017900486 -0.043325055
000050 d2 01 81 bd 83 b1 82 bc 46 b3 7a 3d c1 17 1e bd
       -0.06299175 -0.015953785 0.061206125 -0.038596872
000060 fc a4 17 3d 84 63 31 bc 4b 66 38 bd 15 03 24 3c
       0.037022576 -0.010826949 -0.04501943 0.0100105
000070 77 7d aa 3d a5 43 4f 3c 01 ac f6 bd 4b 66 84 3d
       0.08324712 0.012650405 -0.12044526 0.06464823
000080 dd 63 15 3d ac 4f b1 bd 81 63 da bd 62 2b 03 bd
       0.03647219 -0.08657774 -0.1066351 -0.032023795
000090 ef ac 4c 3d 98 24 4a 3c da 7d 76 bc 78 c7 96 3d
       0.04996961 0.012337826 -0.015044654 0.073622644
0000a0 d8 ed db 3d f9 7c c2 3d 5a c3 55 bc ce 05 59 3d
       0.107387245 0.09496493 -0.013047064 0.05298405
0000b0 66 88 84 bc 44 8c 77 bc aa 53 bc bd 7d f2 ae bd
       -0.016178321 -0.0151091255 -0.09195645 -0.08542345
0000c0 77 6d 99 3c 30 2a b1 bd 62 6e 26 3b 5c a8 4a bc
       0.018728955 -0.08650625 0.0025395383 -0.012369242
0000d0 23 4b 8a bd d5 91 02 be 5b ac ea bb bc 3e ed bd
       -0.067526124 -0.12750943 -0.0071616597 -0.11584231
0000e0 b1 b2 16 bd c0 23 bd 3c b1 eb ea bc ad c3 8c 3d
       -0.036791507 0.023088336 -0.02867684 0.0687326
0000f0 60 9a 80 3c 13 0e aa bc 76 30 b2 3d be ec 68 3c
       0.015698612 -0.020758664 0.087006494 0.0142166
000100 45 6d 3b 3c 8c 5d 81 3d ed 3e fe 3c 05 7c fb 3b
       0.011439626 0.06316671 0.031035865 0.0076746964
000110 ef 8a 74 3d 73 3b 28 bb 90 79 8c bd e9 5b 74 bd
       0.05970281 -0.00256702 -0.06859124 -0.059657965
000120 93 a9 b0 3d a1 ba f9 3c 34 f5 47 3d 94 ef ec ba
       0.08626094 0.0304845 0.04881783 -0.0018076771
000130 46 00 f3 3c 5b 60 f6 3c 7d 5f 08 3c b5 58 88 3d
       0.029663216 0.030075243 0.008323547 0.066575445
000140 fa 3f 33 3d c7 27 c7 bd 10 55 c6 3c be d4 b5 bd
       0.043762185 -0.09724384 0.024210483 -0.08878468
000150 bb 01 56 bc 86 67 f0 3c cf 98 3f 3d e5 f6 e8 bd
       -0.013061936 0.029346239 0.04677659 -0.113752164
000160 92 d4 00 be d7 5a 86 bd 8d 5f 24 bd 12 e4 2f 3d
       -0.12581089 -0.06560295 -0.040130187 0.042942114
000170 a5 69 c6 bc cd 75 93 3d b0 00 59 bd 40 30 b5 bc
       -0.024220297 0.07200203 -0.05297917 -0.022117734
000180 a6 ab d7 3b de 02 d0 bc 89 5b 8d bb 9b d3 27 3d
       0.0065817414 -0.025391992 -0.0043138904 0.040973287
000190 07 7c dc bc 66 75 9a 3d a6 b1 48 3d cc cc 15 3d
       -0.02691461 0.07541923 0.048997544 0.036572263
0001a0 51 8a 0b bd 1f 35 da bd 77 19 af bd 40 22 f8 bd
       -0.034067456 -0.10654663 -0.08549779 -0.12115908
0001b0 1f 98 aa 3b 51 13 d8 3c f7 c8 bd bc a6 0c 31 bd
       0.0052061225 0.026376398 -0.023167117 -0.043224953
0001c0 08 51 0e be cc 6f 56 3c 8a d5 cf 3b 98 28 b0 bd
       -0.13898098 0.013088178 0.0063425945 -0.08601493
0001d0 b7 fa b8 bd 1d 88 71 3c 75 16 f3 39 47 0c 97 3d
       -0.09032195 0.014741925 0.00046365304 0.073753886
0001e0 6c 51 08 bc d8 c7 8f bc e8 3f 05 bd d8 65 a6 bc
       -0.008320194 -0.017551348 -0.03253165 -0.020312235
0001f0 65 74 ad 3d 97 56 01 3c 0f 79 93 3d 87 ad be bc
       0.08469466 0.00789418 0.072008245 -0.023276104
000200 67 15 96 3c 4e bd 03 bc 5e 17 32 be 9e fc 37 bc
       0.018320752 -0.008040739 -0.17391726 -0.011229662
000210 47 55 ff bc a8 dc f7 bd ee 50 e5 3c a8 62 51 3d
       -0.031168593 -0.12102634 0.027992692 0.051119477
000220 49 4c a1 3c 41 8d c3 bc be cd bd 3d f6 e8 94 bc
       0.019689696 -0.023871066 0.09267758 -0.01817749
000230 af cf 7a bd ef 5d 33 bc 8c 7d d3 3d ed cc 48 3c
       -0.06123322 -0.0109476885 0.103266805 0.012255889
000240 b6 1f 25 3d f2 aa 9b 3c 45 65 c4 bb c9 fb ac 3b
       0.040313445 0.019002412 -0.0059935176 0.0052790386
000250 7b 73 9e bd 7c 16 05 be f5 6e 52 3d 13 8c 09 be
       -0.0773687 -0.12996858 0.051375348 -0.1343234
000260 28 00 b3 bd 25 7b f9 bc d2 21 86 3d 42 c4 65 bc
       -0.08740264 -0.030454228 0.065494195 -0.014023842
000270 98 6c 14 3b 95 55 87 bb b0 59 a4 bd 66 da 44 3d
       0.0022647735 -0.004130075 -0.08024919 0.048059843
000280 0d e1 fb 3c 1e c1 76 3d bf 1b 84 3d 99 fc 55 3d
       0.030746961 0.060242765 0.06450605 0.05224285
000290 1f b4 0a bc 34 76 b5 bd ad aa 3e bd 81 a7 8a 3c
       -0.008465796 -0.08860436 -0.046549488 0.016925575
0002a0 49 d2 8a bd 0d 91 ba bd 24 ba 5a 3c 13 ff a8 ba
       -0.0677839 -0.091096975 0.013350043 -0.0012893401
0002b0 78 7a 81 bd 9d f2 b4 bc 8a 86 6c bd b6 d5 6a 3d
       -0.06322187 -0.022088343 -0.057745494 0.057332717
0002c0 ff 8a 90 bd 39 64 ae bc 33 d6 99 3c 12 1b a2 bd
       -0.070577614 -0.021288024 0.018778896 -0.079153195
0002d0 80 4d d1 3d ac 39 a9 3d 3d 86 fe 3c 29 71 0c 3b
       0.1021986 0.08262953 0.03106987 0.0021429753
0002e0 60 50 7f 3c b9 87 02 bc 2e 47 15 3c 01 51 8a bd
       0.015583128 -0.007966929 0.009111209 -0.067537315
0002f0 ab ae ef bc b6 25 c6 bc 6a 39 86 bc 65 ea 11 3d
       -0.029258093 -0.024187904 -0.016384799 0.035623927
000300 76 00 ad bd a9 ca 04 bc 4c fc 0a 3d b7 e9 81 bb
       -0.084473535 -0.008104959 0.033932015 -0.0039646286
000310 cc 82 0a 3d 53 95 05 bc f3 a7 03 bd ac 40 67 3c
       0.033816144 -0.008153277 -0.03214259 0.01411454
000320 37 44 d4 3d 68 23 04 3d 06 ac c8 3c 6f e1 88 bc
       0.103645734 0.03226033 0.02449609 -0.016709058
000330 ee d9 9a bd 15 06 b0 bd 24 f2 9e bc c4 75 bf 3c
       -0.07561098 -0.0859491 -0.019402571 0.023371585
000340 cc ba 12 bc af 6f 9c bd f3 db c6 bd fb b2 df bd
       -0.008955669 -0.076384895 -0.09709921 -0.1092281
000350 b8 21 c4 bd 7c bb b5 bc bf 9d 99 3d 6a 5e 13 3d
       -0.09576744 -0.022184126 0.07500791 0.035978712
000360 46 d9 2b 3a 59 ea 77 bd 60 f8 9b 3d c3 97 21 bc
       0.00065555086 -0.060526226 0.07615733 -0.009862843
000370 1a b3 99 bc 7c f5 9c 3d ea aa bb 3d 89 d5 d5 bc
       -0.01876216 0.0766401 0.09163459 -0.026102798
000380 e5 ab 37 bd 86 ac 72 3c c7 c5 24 be 18 3c 43 bd
       -0.044841666 0.014811641 -0.16091071 -0.04766473
000390 4c 3c ff 3c ab 95 96 3d 4c dd 9f bc 8d 7b 13 3d
       0.031156681 0.07352766 -0.019514702 0.0360065
0003a0 ec 30 85 3d 16 8f ae 3c 48 ec 85 bd 98 70 ca 3c
       0.06503472 0.021308463 -0.06539208 0.024711892
0003b0 b6 19 b6 bc ae 30 ba bb 3c 39 9b 3d 0c 0a 28 bc
       -0.022229057 -0.0056820726 0.07579276 -0.010256302
0003c0 d2 13 1d bb bb e2 56 3c cb 26 18 bb 11 c0 34 be
       -0.0023968113 0.01311558 -0.0023216482 -0.17651393
0003d0 ff 01 e1 bd 11 6d f0 3c b4 89 75 bc f8 8a 25 3e
       -0.10986709 0.029348882 -0.014986444 0.16166294
0003e0 a3 32 b5 3d bc 9e 8c bc 6c 5f 8e bd 3b a2 b8 3b
       0.08847549 -0.017165534 -0.06951794 0.0056345738
0003f0 f6 ff f7 ba df f3 c5 3c 02 9e 61 3c 21 31 f9 bc
       -0.0018920887 0.024164138 0.013770582 -0.030418934

body.10.bias f4 [24]
000000 58 7a 85 3b ff 75 1d bc c8 7c 8d 3c 22 ff 31 3c
       0.0040734224 -0.009610652 0.017271414 0.010864051
000010 f9 fc 04 3a 59 9e 1a bc 54 e0 17 bc f3 e2 82 bb
       0.0005073096 -0.009437167 -0.009269793 -0.0039943396
000020 b2 f0 b0 bc d3 ea 04 3c 73 44 d5 3c 1c 1b 2d bc
       -0.021599147 0.008112627 0.026033616 -0.010565545
000030 bb a0 32 bb 84 47 4b bc bc 93 8e 3c 7a 1b 15 3d
       -0.0027256447 -0.012407187 0.01740443 0.036403157
000040 43 9d b9 3b 9d ca b8 bc 70 d3 1d bc 13 c6 fe 3b
       0.005664499 -0.022557551 -0.00963293 0.007775077
000050 7e af 0f bd 8b e0 b1 bc ad c0 b0 bb cc 1f 87 bc
       -0.03507947 -0.021713516 -0.0053940625 -0.016494654
